#loc = loc("/workspace/parameter-golf/.torchinductor_cache/ze/czectaupxj3yiyjby3m4kjbuibmjp7zqzphopkhw56qfwoh6rank.py":18:0)
#loc1 = loc(unknown)
#loc19 = loc("/workspace/parameter-golf/.torchinductor_cache/ze/czectaupxj3yiyjby3m4kjbuibmjp7zqzphopkhw56qfwoh6rank.py":46:38)
#loc35 = loc("/workspace/parameter-golf/.torchinductor_cache/ze/czectaupxj3yiyjby3m4kjbuibmjp7zqzphopkhw56qfwoh6rank.py":69:27)
#loc43 = loc("in_out_ptr0"(#loc))
#loc44 = loc("in_ptr0"(#loc))
#loc45 = loc("out_ptr0"(#loc))
#loc46 = loc("xnumel"(#loc))
#loc47 = loc("r0_numel"(#loc))
#loc63 = loc("tmp8"(#loc19))
#loc76 = loc("tmp22"(#loc35))
#loc83 = loc(callsite(#loc1 at #loc63))
#loc86 = loc(callsite(#loc1 at #loc76))
module {
  tt.func public @triton_red_fused__log_softmax__to_copy_amax_div_mul_sub_tanh_1(%in_out_ptr0: !tt.ptr<f32> {tt.divisibility = 16 : i32} loc("in_out_ptr0"(#loc)), %in_ptr0: !tt.ptr<bf16> {tt.divisibility = 16 : i32} loc("in_ptr0"(#loc)), %out_ptr0: !tt.ptr<f32> {tt.divisibility = 16 : i32} loc("out_ptr0"(#loc)), %xnumel: i32 {tt.divisibility = 16 : i32} loc("xnumel"(#loc)), %r0_numel: i32 {tt.divisibility = 16 : i32} loc("r0_numel"(#loc))) attributes {noinline = false} {
    %c8192_i32 = arith.constant 8192 : i32 loc(#loc1)
    %cst = arith.constant dense<0.000000e+00> : tensor<1x8192xbf16> loc(#loc1)
    %cst_0 = arith.constant dense<3.000000e+01> : tensor<1x8192xf32> loc(#loc1)
    %cst_1 = arith.constant dense<0.0333333351> : tensor<1x8192xf32> loc(#loc1)
    %cst_2 = arith.constant dense<0.000000e+00> : tensor<1x8192xf32> loc(#loc1)
    %cst_3 = arith.constant dense<8192> : tensor<1x8192xi32> loc(#loc1)
    %_tmp8 = arith.constant dense<0xFF800000> : tensor<1x8192xf32> loc(#loc48)
    %xoffset = tt.get_program_id x : i32 loc(#loc49)
    %r0_base = tt.make_range {end = 8192 : i32, start = 0 : i32} : tensor<8192xi32> loc(#loc50)
    %r0_base_4 = tt.expand_dims %r0_base {axis = 0 : i32} : tensor<8192xi32> -> tensor<1x8192xi32> loc(#loc51)
    %r0_mask = arith.cmpi slt, %r0_base_4, %cst_3 : tensor<1x8192xi32> loc(#loc52)
    %tmp0 = arith.muli %xoffset, %c8192_i32 : i32 loc(#loc53)
    %tmp0_5 = tt.splat %tmp0 : i32 -> tensor<1x8192xi32> loc(#loc79)
    %tmp0_6 = arith.addi %r0_base_4, %tmp0_5 : tensor<1x8192xi32> loc(#loc54)
    %tmp0_7 = tt.splat %in_ptr0 : !tt.ptr<bf16> -> tensor<1x8192x!tt.ptr<bf16>> loc(#loc55)
    %tmp0_8 = tt.addptr %tmp0_7, %tmp0_6 : tensor<1x8192x!tt.ptr<bf16>>, tensor<1x8192xi32> loc(#loc55)
    %tmp0_9 = tt.load %tmp0_8, %r0_mask, %cst evictionPolicy = evict_last : tensor<1x8192x!tt.ptr<bf16>> loc(#loc56)
    %tmp0_10 = arith.extf %tmp0_9 : tensor<1x8192xbf16> to tensor<1x8192xf32> loc(#loc57)
    %tmp3 = arith.mulf %tmp0_10, %cst_1 : tensor<1x8192xf32> loc(#loc58)
    %tmp4 = tt.extern_elementwise %tmp3 {libname = "", libpath = "", pure = true, symbol = "__nv_tanhf"} : (tensor<1x8192xf32>) -> tensor<1x8192xf32> loc(#loc59)
    %mask = arith.cmpf ogt, %_tmp8, %tmp4 : tensor<1x8192xf32> loc(#loc87)
    %tmp9 = arith.select %mask, %_tmp8, %tmp4 : tensor<1x8192xi1>, tensor<1x8192xf32> loc(#loc81)
    %_tmp8_11 = arith.select %r0_mask, %tmp9, %_tmp8 : tensor<1x8192xi1>, tensor<1x8192xf32> loc(#loc62)
    %tmp8 = "tt.reduce"(%_tmp8_11) <{axis = 1 : i32}> ({
    ^bb0(%tmp8_16: f32 loc(callsite(#loc1 at #loc63)), %tmp8_17: f32 loc(callsite(#loc1 at #loc63))):
      %mask_18 = arith.cmpf ogt, %tmp8_16, %tmp8_17 : f32 loc(#loc88)
      %mask_19 = arith.cmpf une, %tmp8_16, %tmp8_16 : f32 loc(#loc89)
      %mask_20 = arith.ori %mask_18, %mask_19 : i1 loc(#loc90)
      %tmp8_21 = arith.select %mask_20, %tmp8_16, %tmp8_17 : f32 loc(#loc91)
      tt.reduce.return %tmp8_21 : f32 loc(#loc82)
    }) : (tensor<1x8192xf32>) -> tensor<1xf32> loc(#loc82)
    %tmp8_12 = tt.expand_dims %tmp8 {axis = 1 : i32} : tensor<1xf32> -> tensor<1x1xf32> loc(#loc66)
    %0 = tt.addptr %out_ptr0, %xoffset : !tt.ptr<f32>, i32 loc(#loc23)
    %1 = tt.splat %0 : !tt.ptr<f32> -> tensor<1x1x!tt.ptr<f32>> loc(#loc23)
    tt.store %1, %tmp8_12 : tensor<1x1x!tt.ptr<f32>> loc(#loc24)
    %tmp10 = tt.load %tmp0_8, %r0_mask, %cst evictionPolicy = evict_first : tensor<1x8192x!tt.ptr<bf16>> loc(#loc67)
    %tmp10_13 = arith.extf %tmp10 : tensor<1x8192xbf16> to tensor<1x8192xf32> loc(#loc68)
    %tmp13 = arith.mulf %tmp10_13, %cst_1 : tensor<1x8192xf32> loc(#loc69)
    %tmp14 = tt.extern_elementwise %tmp13 {libname = "", libpath = "", pure = true, symbol = "__nv_tanhf"} : (tensor<1x8192xf32>) -> tensor<1x8192xf32> loc(#loc70)
    %tmp17 = tt.broadcast %tmp8_12 : tensor<1x1xf32> -> tensor<1x8192xf32> loc(#loc71)
    %tmp17_14 = arith.subf %tmp14, %tmp17 : tensor<1x8192xf32> loc(#loc71)
    %tmp19 = arith.mulf %tmp17_14, %cst_0 : tensor<1x8192xf32> loc(#loc72)
    %tmp20 = tt.extern_elementwise %tmp19 {libname = "", libpath = "", pure = true, symbol = "__nv_expf"} : (tensor<1x8192xf32>) -> tensor<1x8192xf32> loc(#loc73)
    %tmp23 = arith.addf %tmp20, %cst_2 : tensor<1x8192xf32> loc(#loc74)
    %_tmp22 = arith.select %r0_mask, %tmp23, %cst_2 : tensor<1x8192xi1>, tensor<1x8192xf32> loc(#loc75)
    %tmp22 = "tt.reduce"(%_tmp22) <{axis = 1 : i32}> ({
    ^bb0(%tmp22_16: f32 loc(callsite(#loc1 at #loc76)), %tmp22_17: f32 loc(callsite(#loc1 at #loc76))):
      %tmp22_18 = arith.addf %tmp22_16, %tmp22_17 : f32 loc(#loc92)
      tt.reduce.return %tmp22_18 : f32 loc(#loc85)
    }) : (tensor<1x8192xf32>) -> tensor<1xf32> loc(#loc85)
    %tmp22_15 = tt.expand_dims %tmp22 {axis = 1 : i32} : tensor<1xf32> -> tensor<1x1xf32> loc(#loc77)
    %tmp24 = math.log %tmp22_15 : tensor<1x1xf32> loc(#loc78)
    gpu.barrier loc(#loc39)
    %2 = tt.addptr %in_out_ptr0, %xoffset : !tt.ptr<f32>, i32 loc(#loc40)
    %3 = tt.splat %2 : !tt.ptr<f32> -> tensor<1x1x!tt.ptr<f32>> loc(#loc40)
    tt.store %3, %tmp24 : tensor<1x1x!tt.ptr<f32>> loc(#loc41)
    tt.return loc(#loc42)
  } loc(#loc)
} loc(#loc)
#loc2 = loc("/workspace/parameter-golf/.torchinductor_cache/ze/czectaupxj3yiyjby3m4kjbuibmjp7zqzphopkhw56qfwoh6rank.py":29:55)
#loc3 = loc("/workspace/parameter-golf/.torchinductor_cache/ze/czectaupxj3yiyjby3m4kjbuibmjp7zqzphopkhw56qfwoh6rank.py":23:28)
#loc4 = loc("/workspace/parameter-golf/.torchinductor_cache/ze/czectaupxj3yiyjby3m4kjbuibmjp7zqzphopkhw56qfwoh6rank.py":26:27)
#loc5 = loc("/workspace/parameter-golf/.torchinductor_cache/ze/czectaupxj3yiyjby3m4kjbuibmjp7zqzphopkhw56qfwoh6rank.py":26:37)
#loc6 = loc("/workspace/parameter-golf/.torchinductor_cache/ze/czectaupxj3yiyjby3m4kjbuibmjp7zqzphopkhw56qfwoh6rank.py":32:29)
#loc7 = loc("/workspace/parameter-golf/.torchinductor_cache/ze/czectaupxj3yiyjby3m4kjbuibmjp7zqzphopkhw56qfwoh6rank.py":36:46)
#loc8 = loc("/workspace/parameter-golf/.torchinductor_cache/ze/czectaupxj3yiyjby3m4kjbuibmjp7zqzphopkhw56qfwoh6rank.py":36:41)
#loc9 = loc("/workspace/parameter-golf/.torchinductor_cache/ze/czectaupxj3yiyjby3m4kjbuibmjp7zqzphopkhw56qfwoh6rank.py":36:34)
#loc10 = loc("/workspace/parameter-golf/.torchinductor_cache/ze/czectaupxj3yiyjby3m4kjbuibmjp7zqzphopkhw56qfwoh6rank.py":36:51)
#loc11 = loc("/workspace/parameter-golf/.torchinductor_cache/ze/czectaupxj3yiyjby3m4kjbuibmjp7zqzphopkhw56qfwoh6rank.py":36:104)
#loc12 = loc("/workspace/parameter-golf/.torchinductor_cache/ze/czectaupxj3yiyjby3m4kjbuibmjp7zqzphopkhw56qfwoh6rank.py":39:22)
#loc13 = loc("/workspace/parameter-golf/.torchinductor_cache/ze/czectaupxj3yiyjby3m4kjbuibmjp7zqzphopkhw56qfwoh6rank.py":40:30)
#loc14 = loc("/workspace/parameter-golf/.venv/lib/python3.11/site-packages/torch/_inductor/runtime/triton_helpers.py":116:15)
#loc15 = loc("/workspace/parameter-golf/.torchinductor_cache/ze/czectaupxj3yiyjby3m4kjbuibmjp7zqzphopkhw56qfwoh6rank.py":44:45)
#loc16 = loc("/workspace/parameter-golf/.venv/lib/python3.11/site-packages/torch/_inductor/runtime/triton_helpers.py":119:29)
#loc17 = loc("/workspace/parameter-golf/.torchinductor_cache/ze/czectaupxj3yiyjby3m4kjbuibmjp7zqzphopkhw56qfwoh6rank.py":45:40)
#loc18 = loc("/workspace/parameter-golf/.venv/lib/python3.11/site-packages/torch/_inductor/runtime/triton_helpers.py":129:29)
#loc20 = loc("/workspace/parameter-golf/.venv/lib/python3.11/site-packages/torch/_inductor/runtime/triton_helpers.py":118:21)
#loc21 = loc("/workspace/parameter-golf/.venv/lib/python3.11/site-packages/torch/_inductor/runtime/triton_helpers.py":118:16)
#loc22 = loc("/workspace/parameter-golf/.torchinductor_cache/ze/czectaupxj3yiyjby3m4kjbuibmjp7zqzphopkhw56qfwoh6rank.py":46:41)
#loc23 = loc("/workspace/parameter-golf/.torchinductor_cache/ze/czectaupxj3yiyjby3m4kjbuibmjp7zqzphopkhw56qfwoh6rank.py":47:25)
#loc24 = loc("/workspace/parameter-golf/.torchinductor_cache/ze/czectaupxj3yiyjby3m4kjbuibmjp7zqzphopkhw56qfwoh6rank.py":47:36)
#loc25 = loc("/workspace/parameter-golf/.torchinductor_cache/ze/czectaupxj3yiyjby3m4kjbuibmjp7zqzphopkhw56qfwoh6rank.py":55:52)
#loc26 = loc("/workspace/parameter-golf/.torchinductor_cache/ze/czectaupxj3yiyjby3m4kjbuibmjp7zqzphopkhw56qfwoh6rank.py":55:106)
#loc27 = loc("/workspace/parameter-golf/.torchinductor_cache/ze/czectaupxj3yiyjby3m4kjbuibmjp7zqzphopkhw56qfwoh6rank.py":58:24)
#loc28 = loc("/workspace/parameter-golf/.torchinductor_cache/ze/czectaupxj3yiyjby3m4kjbuibmjp7zqzphopkhw56qfwoh6rank.py":59:31)
#loc29 = loc("/workspace/parameter-golf/.torchinductor_cache/ze/czectaupxj3yiyjby3m4kjbuibmjp7zqzphopkhw56qfwoh6rank.py":62:24)
#loc30 = loc("/workspace/parameter-golf/.torchinductor_cache/ze/czectaupxj3yiyjby3m4kjbuibmjp7zqzphopkhw56qfwoh6rank.py":64:24)
#loc31 = loc("/workspace/parameter-golf/.torchinductor_cache/ze/czectaupxj3yiyjby3m4kjbuibmjp7zqzphopkhw56qfwoh6rank.py":65:30)
#loc32 = loc("/workspace/parameter-golf/.torchinductor_cache/ze/czectaupxj3yiyjby3m4kjbuibmjp7zqzphopkhw56qfwoh6rank.py":67:25)
#loc33 = loc("/workspace/parameter-golf/.torchinductor_cache/ze/czectaupxj3yiyjby3m4kjbuibmjp7zqzphopkhw56qfwoh6rank.py":68:42)
#loc34 = loc("/workspace/parameter-golf/.venv/lib/python3.11/site-packages/triton/language/standard.py":293:36)
#loc36 = loc("/workspace/parameter-golf/.venv/lib/python3.11/site-packages/triton/language/standard.py":263:15)
#loc37 = loc("/workspace/parameter-golf/.torchinductor_cache/ze/czectaupxj3yiyjby3m4kjbuibmjp7zqzphopkhw56qfwoh6rank.py":69:30)
#loc38 = loc("/workspace/parameter-golf/.torchinductor_cache/ze/czectaupxj3yiyjby3m4kjbuibmjp7zqzphopkhw56qfwoh6rank.py":70:24)
#loc39 = loc("/workspace/parameter-golf/.torchinductor_cache/ze/czectaupxj3yiyjby3m4kjbuibmjp7zqzphopkhw56qfwoh6rank.py":71:4)
#loc40 = loc("/workspace/parameter-golf/.torchinductor_cache/ze/czectaupxj3yiyjby3m4kjbuibmjp7zqzphopkhw56qfwoh6rank.py":72:28)
#loc41 = loc("/workspace/parameter-golf/.torchinductor_cache/ze/czectaupxj3yiyjby3m4kjbuibmjp7zqzphopkhw56qfwoh6rank.py":72:40)
#loc42 = loc("/workspace/parameter-golf/.torchinductor_cache/ze/czectaupxj3yiyjby3m4kjbuibmjp7zqzphopkhw56qfwoh6rank.py":72:4)
#loc48 = loc("_tmp8"(#loc2))
#loc49 = loc("xoffset"(#loc3))
#loc50 = loc("r0_base"(#loc4))
#loc51 = loc("r0_base"(#loc5))
#loc52 = loc("r0_mask"(#loc6))
#loc53 = loc("tmp0"(#loc7))
#loc54 = loc("tmp0"(#loc8))
#loc55 = loc("tmp0"(#loc9))
#loc56 = loc("tmp0"(#loc10))
#loc57 = loc("tmp0"(#loc11))
#loc58 = loc("tmp3"(#loc12))
#loc59 = loc("tmp4"(#loc13))
#loc60 = loc("mask"(#loc14))
#loc61 = loc("tmp9"(#loc15))
#loc62 = loc("_tmp8"(#loc17))
#loc64 = loc("mask"(#loc20))
#loc65 = loc("mask"(#loc21))
#loc66 = loc("tmp8"(#loc22))
#loc67 = loc("tmp10"(#loc25))
#loc68 = loc("tmp10"(#loc26))
#loc69 = loc("tmp13"(#loc27))
#loc70 = loc("tmp14"(#loc28))
#loc71 = loc("tmp17"(#loc29))
#loc72 = loc("tmp19"(#loc30))
#loc73 = loc("tmp20"(#loc31))
#loc74 = loc("tmp23"(#loc32))
#loc75 = loc("_tmp22"(#loc33))
#loc77 = loc("tmp22"(#loc37))
#loc78 = loc("tmp24"(#loc38))
#loc79 = loc(fused[#loc54, #loc53])
#loc80 = loc("mask"(#loc60))
#loc81 = loc(callsite(#loc16 at #loc61))
#loc82 = loc(callsite(#loc18 at #loc63))
#loc84 = loc("mask"(#loc65))
#loc85 = loc(callsite(#loc34 at #loc76))
#loc87 = loc(callsite(#loc80 at #loc61))
#loc88 = loc(callsite(#loc80 at #loc82))
#loc89 = loc(callsite(#loc64 at #loc82))
#loc90 = loc(callsite(#loc84 at #loc82))
#loc91 = loc(callsite(#loc16 at #loc82))
#loc92 = loc(callsite(#loc36 at #loc85))
