#loc = loc("/workspace/parameter-golf/.torchinductor_cache/uf/cufvw6hebiiviobiezrvyacqbmtopierbnlcua33lv7z47ir3djh.py":18:0)
#loc2 = loc(unknown)
#loc16 = loc("/workspace/parameter-golf/.torchinductor_cache/uf/cufvw6hebiiviobiezrvyacqbmtopierbnlcua33lv7z47ir3djh.py":40:25)
#loc22 = loc("in_ptr0"(#loc))
#loc23 = loc("out_ptr0"(#loc))
#loc24 = loc("xnumel"(#loc))
#loc25 = loc("r0_numel"(#loc))
#loc39 = loc("tmp2"(#loc16))
#loc44 = loc(callsite(#loc2 at #loc39))
module {
  tt.func public @triton_red_fused__unsafe_view_mul_sigmoid_sigmoid_backward_sum_view_12(%in_ptr0: !tt.ptr<f32> {tt.divisibility = 16 : i32} loc("in_ptr0"(#loc)), %out_ptr0: !tt.ptr<f32> {tt.divisibility = 16 : i32} loc("out_ptr0"(#loc)), %xnumel: i32 {tt.divisibility = 16 : i32} loc("xnumel"(#loc)), %r0_numel: i32 loc("r0_numel"(#loc))) attributes {noinline = false} {
    %xmask = arith.constant 384 : i32 loc(#loc26)
    %cst = arith.constant dense<384> : tensor<1x512xi32> loc(#loc2)
    %cst_0 = arith.constant dense<349> : tensor<1x512xi32> loc(#loc2)
    %cst_1 = arith.constant dense<0.000000e+00> : tensor<1x512xf32> loc(#loc2)
    %xoffset = tt.get_program_id x : i32 loc(#loc27)
    %xmask_2 = arith.cmpi slt, %xoffset, %xmask : i32 loc(#loc26)
    %xmask_3 = tt.splat %xmask_2 : i1 -> tensor<1x1xi1> loc(#loc26)
    %r0_base = tt.make_range {end = 512 : i32, start = 0 : i32} : tensor<512xi32> loc(#loc28)
    %r0_base_4 = tt.expand_dims %r0_base {axis = 0 : i32} : tensor<512xi32> -> tensor<1x512xi32> loc(#loc29)
    %r0_mask = arith.cmpi slt, %r0_base_4, %cst_0 : tensor<1x512xi32> loc(#loc30)
    %tmp0 = arith.muli %r0_base_4, %cst : tensor<1x512xi32> loc(#loc31)
    %tmp0_5 = tt.splat %xoffset : i32 -> tensor<1x512xi32> loc(#loc41)
    %tmp0_6 = arith.addi %tmp0_5, %tmp0 : tensor<1x512xi32> loc(#loc32)
    %tmp0_7 = tt.splat %in_ptr0 : !tt.ptr<f32> -> tensor<1x512x!tt.ptr<f32>> loc(#loc34)
    %tmp0_8 = tt.addptr %tmp0_7, %tmp0_6 : tensor<1x512x!tt.ptr<f32>>, tensor<1x512xi32> loc(#loc34)
    %tmp0_9 = tt.splat %xmask_2 : i1 -> tensor<1x512xi1> loc(#loc42)
    %tmp0_10 = arith.andi %r0_mask, %tmp0_9 : tensor<1x512xi1> loc(#loc35)
    %tmp0_11 = tt.load %tmp0_8, %tmp0_10, %cst_1 evictionPolicy = evict_first : tensor<1x512x!tt.ptr<f32>> loc(#loc36)
    %tmp3 = arith.addf %tmp0_11, %cst_1 : tensor<1x512xf32> loc(#loc37)
    %_tmp2 = arith.select %tmp0_10, %tmp3, %cst_1 : tensor<1x512xi1>, tensor<1x512xf32> loc(#loc38)
    %tmp2 = "tt.reduce"(%_tmp2) <{axis = 1 : i32}> ({
    ^bb0(%tmp2_13: f32 loc(callsite(#loc2 at #loc39)), %tmp2_14: f32 loc(callsite(#loc2 at #loc39))):
      %tmp2_15 = arith.addf %tmp2_13, %tmp2_14 : f32 loc(#loc45)
      tt.reduce.return %tmp2_15 : f32 loc(#loc43)
    }) : (tensor<1x512xf32>) -> tensor<1xf32> loc(#loc43)
    %tmp2_12 = tt.expand_dims %tmp2 {axis = 1 : i32} : tensor<1xf32> -> tensor<1x1xf32> loc(#loc40)
    %0 = tt.addptr %out_ptr0, %xoffset : !tt.ptr<f32>, i32 loc(#loc19)
    %1 = tt.splat %0 : !tt.ptr<f32> -> tensor<1x1x!tt.ptr<f32>> loc(#loc19)
    tt.store %1, %tmp2_12, %xmask_3 : tensor<1x1x!tt.ptr<f32>> loc(#loc20)
    tt.return loc(#loc21)
  } loc(#loc)
} loc(#loc)
#loc1 = loc("/workspace/parameter-golf/.torchinductor_cache/uf/cufvw6hebiiviobiezrvyacqbmtopierbnlcua33lv7z47ir3djh.py":25:21)
#loc3 = loc("/workspace/parameter-golf/.torchinductor_cache/uf/cufvw6hebiiviobiezrvyacqbmtopierbnlcua33lv7z47ir3djh.py":23:28)
#loc4 = loc("/workspace/parameter-golf/.torchinductor_cache/uf/cufvw6hebiiviobiezrvyacqbmtopierbnlcua33lv7z47ir3djh.py":26:27)
#loc5 = loc("/workspace/parameter-golf/.torchinductor_cache/uf/cufvw6hebiiviobiezrvyacqbmtopierbnlcua33lv7z47ir3djh.py":26:37)
#loc6 = loc("/workspace/parameter-golf/.torchinductor_cache/uf/cufvw6hebiiviobiezrvyacqbmtopierbnlcua33lv7z47ir3djh.py":32:29)
#loc7 = loc("/workspace/parameter-golf/.torchinductor_cache/uf/cufvw6hebiiviobiezrvyacqbmtopierbnlcua33lv7z47ir3djh.py":36:43)
#loc8 = loc("/workspace/parameter-golf/.torchinductor_cache/uf/cufvw6hebiiviobiezrvyacqbmtopierbnlcua33lv7z47ir3djh.py":36:39)
#loc9 = loc("/workspace/parameter-golf/.torchinductor_cache/uf/cufvw6hebiiviobiezrvyacqbmtopierbnlcua33lv7z47ir3djh.py":24:23)
#loc10 = loc("/workspace/parameter-golf/.torchinductor_cache/uf/cufvw6hebiiviobiezrvyacqbmtopierbnlcua33lv7z47ir3djh.py":36:34)
#loc11 = loc("/workspace/parameter-golf/.torchinductor_cache/uf/cufvw6hebiiviobiezrvyacqbmtopierbnlcua33lv7z47ir3djh.py":36:60)
#loc12 = loc("/workspace/parameter-golf/.torchinductor_cache/uf/cufvw6hebiiviobiezrvyacqbmtopierbnlcua33lv7z47ir3djh.py":36:50)
#loc13 = loc("/workspace/parameter-golf/.torchinductor_cache/uf/cufvw6hebiiviobiezrvyacqbmtopierbnlcua33lv7z47ir3djh.py":38:23)
#loc14 = loc("/workspace/parameter-golf/.torchinductor_cache/uf/cufvw6hebiiviobiezrvyacqbmtopierbnlcua33lv7z47ir3djh.py":39:48)
#loc15 = loc("/workspace/parameter-golf/.venv/lib/python3.11/site-packages/triton/language/standard.py":293:36)
#loc17 = loc("/workspace/parameter-golf/.venv/lib/python3.11/site-packages/triton/language/standard.py":263:15)
#loc18 = loc("/workspace/parameter-golf/.torchinductor_cache/uf/cufvw6hebiiviobiezrvyacqbmtopierbnlcua33lv7z47ir3djh.py":40:28)
#loc19 = loc("/workspace/parameter-golf/.torchinductor_cache/uf/cufvw6hebiiviobiezrvyacqbmtopierbnlcua33lv7z47ir3djh.py":41:25)
#loc20 = loc("/workspace/parameter-golf/.torchinductor_cache/uf/cufvw6hebiiviobiezrvyacqbmtopierbnlcua33lv7z47ir3djh.py":41:36)
#loc21 = loc("/workspace/parameter-golf/.torchinductor_cache/uf/cufvw6hebiiviobiezrvyacqbmtopierbnlcua33lv7z47ir3djh.py":41:4)
#loc26 = loc("xmask"(#loc1))
#loc27 = loc("xoffset"(#loc3))
#loc28 = loc("r0_base"(#loc4))
#loc29 = loc("r0_base"(#loc5))
#loc30 = loc("r0_mask"(#loc6))
#loc31 = loc("tmp0"(#loc7))
#loc32 = loc("tmp0"(#loc8))
#loc33 = loc("xindex"(#loc9))
#loc34 = loc("tmp0"(#loc10))
#loc35 = loc("tmp0"(#loc11))
#loc36 = loc("tmp0"(#loc12))
#loc37 = loc("tmp3"(#loc13))
#loc38 = loc("_tmp2"(#loc14))
#loc40 = loc("tmp2"(#loc18))
#loc41 = loc(fused[#loc32, #loc33])
#loc42 = loc(fused[#loc35, #loc26])
#loc43 = loc(callsite(#loc15 at #loc39))
#loc45 = loc(callsite(#loc17 at #loc43))
