#loc = loc("/workspace/parameter-golf/.torchinductor_cache/ao/caotp3ljejrsfk67p7ppx23ok6tu5pbwiby7trxk24lqwjxe7bn3.py":18:0)
#loc29 = loc("in_ptr0"(#loc))
#loc30 = loc("in_ptr1"(#loc))
#loc31 = loc("out_ptr0"(#loc))
#loc32 = loc("xnumel"(#loc))
module {
  tt.func public @triton_poi_fused_embedding_1(%in_ptr0: !tt.ptr<i64> {tt.divisibility = 16 : i32} loc("in_ptr0"(#loc)), %in_ptr1: !tt.ptr<bf16> {tt.divisibility = 16 : i32} loc("in_ptr1"(#loc)), %out_ptr0: !tt.ptr<bf16> {tt.divisibility = 16 : i32} loc("out_ptr0"(#loc)), %xnumel: i32 {tt.divisibility = 16 : i32} loc("xnumel"(#loc))) attributes {noinline = false} {
    %xnumel_0 = arith.constant 134400000 : i32 loc(#loc33)
    %xoffset = tt.get_program_id x : i32 loc(#loc34)
    %xoffset_1 = arith.constant 1024 : i32 loc(#loc35)
    %xoffset_2 = arith.constant 1024 : i32 loc(#loc35)
    %xoffset_3 = arith.muli %xoffset, %xoffset_2 : i32 loc(#loc35)
    %xindex = tt.make_range {end = 1024 : i32, start = 0 : i32} : tensor<1024xi32> loc(#loc36)
    %xindex_4 = tt.splat %xoffset_3 : i32 -> tensor<1024xi32> loc(#loc37)
    %xindex_5 = arith.addi %xindex_4, %xindex : tensor<1024xi32> loc(#loc37)
    %xmask = arith.constant dense<134400000> : tensor<1024xi32> loc(#loc38)
    %xmask_6 = arith.cmpi slt, %xindex_5, %xmask : tensor<1024xi32> loc(#loc38)
    %x1 = arith.constant 384 : i32 loc(#loc39)
    %x1_7 = arith.constant 384 : i32 loc(#loc39)
    %x1_8 = arith.constant dense<384> : tensor<1024xi32> loc(#loc39)
    %x1_9 = arith.divsi %xindex_5, %x1_8 : tensor<1024xi32> loc(#loc39)
    %x0 = arith.constant 384 : i32 loc(#loc40)
    %x0_10 = arith.constant 384 : i32 loc(#loc40)
    %x0_11 = arith.constant dense<384> : tensor<1024xi32> loc(#loc40)
    %x0_12 = arith.remsi %xindex_5, %x0_11 : tensor<1024xi32> loc(#loc40)
    %tmp0 = tt.splat %in_ptr0 : !tt.ptr<i64> -> tensor<1024x!tt.ptr<i64>> loc(#loc41)
    %tmp0_13 = tt.addptr %tmp0, %x1_9 : tensor<1024x!tt.ptr<i64>>, tensor<1024xi32> loc(#loc41)
    %tmp0_14 = tt.load %tmp0_13, %xmask_6 evictionPolicy = evict_last : tensor<1024x!tt.ptr<i64>> loc(#loc42)
    %tmp1 = arith.constant 8192 : i32 loc(#loc43)
    %tmp1_15 = arith.constant dense<8192> : tensor<1024xi32> loc(#loc43)
    %tmp2 = arith.extsi %tmp1_15 : tensor<1024xi32> to tensor<1024xi64> loc(#loc44)
    %tmp2_16 = arith.addi %tmp0_14, %tmp2 : tensor<1024xi64> loc(#loc44)
    %tmp3 = arith.constant 0 : i32 loc(#loc45)
    %tmp3_17 = arith.extsi %tmp3 : i32 to i64 loc(#loc45)
    %tmp3_18 = tt.splat %tmp3_17 : i64 -> tensor<1024xi64> loc(#loc45)
    %tmp3_19 = arith.cmpi slt, %tmp0_14, %tmp3_18 : tensor<1024xi64> loc(#loc45)
    %tmp4 = arith.select %tmp3_19, %tmp2_16, %tmp0_14 : tensor<1024xi1>, tensor<1024xi64> loc(#loc46)
    %c0_i32 = arith.constant 0 : i32 loc(#loc15)
    %0 = arith.extsi %c0_i32 : i32 to i64 loc(#loc15)
    %1 = tt.splat %0 : i64 -> tensor<1024xi64> loc(#loc15)
    %2 = arith.cmpi sle, %1, %tmp4 : tensor<1024xi64> loc(#loc15)
    %c8192_i32 = arith.constant 8192 : i32 loc(#loc16)
    %3 = arith.extsi %c8192_i32 : i32 to i64 loc(#loc16)
    %4 = tt.splat %3 : i64 -> tensor<1024xi64> loc(#loc16)
    %5 = arith.cmpi slt, %tmp4, %4 : tensor<1024xi64> loc(#loc16)
    %6 = arith.andi %2, %5 : tensor<1024xi1> loc(#loc17)
    %true = arith.constant true loc(#loc18)
    %cst = arith.constant dense<true> : tensor<1024xi1> loc(#loc18)
    %7 = arith.xori %xmask_6, %cst : tensor<1024xi1> loc(#loc18)
    %8 = arith.ori %6, %7 : tensor<1024xi1> loc(#loc19)
    tt.assert %8, "index out of bounds: 0 <= tmp4 < 8192" : tensor<1024xi1> loc(#loc20)
    %tmp6 = arith.constant 384 : i32 loc(#loc47)
    %tmp6_20 = arith.constant 384 : i64 loc(#loc47)
    %tmp6_21 = arith.constant dense<384> : tensor<1024xi64> loc(#loc47)
    %tmp6_22 = arith.muli %tmp6_21, %tmp4 : tensor<1024xi64> loc(#loc47)
    %tmp6_23 = arith.extsi %x0_12 : tensor<1024xi32> to tensor<1024xi64> loc(#loc48)
    %tmp6_24 = arith.addi %tmp6_23, %tmp6_22 : tensor<1024xi64> loc(#loc48)
    %tmp6_25 = tt.splat %in_ptr1 : !tt.ptr<bf16> -> tensor<1024x!tt.ptr<bf16>> loc(#loc49)
    %tmp6_26 = tt.addptr %tmp6_25, %tmp6_24 : tensor<1024x!tt.ptr<bf16>>, tensor<1024xi64> loc(#loc49)
    %tmp6_27 = tt.load %tmp6_26, %xmask_6 : tensor<1024x!tt.ptr<bf16>> loc(#loc50)
    %tmp6_28 = arith.extf %tmp6_27 : tensor<1024xbf16> to tensor<1024xf32> loc(#loc51)
    %9 = tt.splat %out_ptr0 : !tt.ptr<bf16> -> tensor<1024x!tt.ptr<bf16>> loc(#loc26)
    %10 = tt.addptr %9, %xindex_5 : tensor<1024x!tt.ptr<bf16>>, tensor<1024xi32> loc(#loc26)
    %11 = arith.truncf %tmp6_28 : tensor<1024xf32> to tensor<1024xbf16> loc(#loc27)
    tt.store %10, %11, %xmask_6 : tensor<1024x!tt.ptr<bf16>> loc(#loc27)
    tt.return loc(#loc28)
  } loc(#loc)
} loc(#loc)
#loc1 = loc("/workspace/parameter-golf/.torchinductor_cache/ao/caotp3ljejrsfk67p7ppx23ok6tu5pbwiby7trxk24lqwjxe7bn3.py":19:13)
#loc2 = loc("/workspace/parameter-golf/.torchinductor_cache/ao/caotp3ljejrsfk67p7ppx23ok6tu5pbwiby7trxk24lqwjxe7bn3.py":20:28)
#loc3 = loc("/workspace/parameter-golf/.torchinductor_cache/ao/caotp3ljejrsfk67p7ppx23ok6tu5pbwiby7trxk24lqwjxe7bn3.py":20:33)
#loc4 = loc("/workspace/parameter-golf/.torchinductor_cache/ao/caotp3ljejrsfk67p7ppx23ok6tu5pbwiby7trxk24lqwjxe7bn3.py":21:36)
#loc5 = loc("/workspace/parameter-golf/.torchinductor_cache/ao/caotp3ljejrsfk67p7ppx23ok6tu5pbwiby7trxk24lqwjxe7bn3.py":21:23)
#loc6 = loc("/workspace/parameter-golf/.torchinductor_cache/ao/caotp3ljejrsfk67p7ppx23ok6tu5pbwiby7trxk24lqwjxe7bn3.py":22:21)
#loc7 = loc("/workspace/parameter-golf/.torchinductor_cache/ao/caotp3ljejrsfk67p7ppx23ok6tu5pbwiby7trxk24lqwjxe7bn3.py":23:19)
#loc8 = loc("/workspace/parameter-golf/.torchinductor_cache/ao/caotp3ljejrsfk67p7ppx23ok6tu5pbwiby7trxk24lqwjxe7bn3.py":24:19)
#loc9 = loc("/workspace/parameter-golf/.torchinductor_cache/ao/caotp3ljejrsfk67p7ppx23ok6tu5pbwiby7trxk24lqwjxe7bn3.py":26:30)
#loc10 = loc("/workspace/parameter-golf/.torchinductor_cache/ao/caotp3ljejrsfk67p7ppx23ok6tu5pbwiby7trxk24lqwjxe7bn3.py":26:35)
#loc11 = loc("/workspace/parameter-golf/.torchinductor_cache/ao/caotp3ljejrsfk67p7ppx23ok6tu5pbwiby7trxk24lqwjxe7bn3.py":27:35)
#loc12 = loc("/workspace/parameter-golf/.torchinductor_cache/ao/caotp3ljejrsfk67p7ppx23ok6tu5pbwiby7trxk24lqwjxe7bn3.py":28:18)
#loc13 = loc("/workspace/parameter-golf/.torchinductor_cache/ao/caotp3ljejrsfk67p7ppx23ok6tu5pbwiby7trxk24lqwjxe7bn3.py":29:18)
#loc14 = loc("/workspace/parameter-golf/.torchinductor_cache/ao/caotp3ljejrsfk67p7ppx23ok6tu5pbwiby7trxk24lqwjxe7bn3.py":30:32)
#loc15 = loc("/workspace/parameter-golf/.torchinductor_cache/ao/caotp3ljejrsfk67p7ppx23ok6tu5pbwiby7trxk24lqwjxe7bn3.py":31:28)
#loc16 = loc("/workspace/parameter-golf/.torchinductor_cache/ao/caotp3ljejrsfk67p7ppx23ok6tu5pbwiby7trxk24lqwjxe7bn3.py":31:44)
#loc17 = loc("/workspace/parameter-golf/.torchinductor_cache/ao/caotp3ljejrsfk67p7ppx23ok6tu5pbwiby7trxk24lqwjxe7bn3.py":31:37)
#loc18 = loc("/workspace/parameter-golf/.torchinductor_cache/ao/caotp3ljejrsfk67p7ppx23ok6tu5pbwiby7trxk24lqwjxe7bn3.py":31:55)
#loc19 = loc("/workspace/parameter-golf/.torchinductor_cache/ao/caotp3ljejrsfk67p7ppx23ok6tu5pbwiby7trxk24lqwjxe7bn3.py":31:53)
#loc20 = loc("/workspace/parameter-golf/.torchinductor_cache/ao/caotp3ljejrsfk67p7ppx23ok6tu5pbwiby7trxk24lqwjxe7bn3.py":31:63)
#loc21 = loc("/workspace/parameter-golf/.torchinductor_cache/ao/caotp3ljejrsfk67p7ppx23ok6tu5pbwiby7trxk24lqwjxe7bn3.py":32:39)
#loc22 = loc("/workspace/parameter-golf/.torchinductor_cache/ao/caotp3ljejrsfk67p7ppx23ok6tu5pbwiby7trxk24lqwjxe7bn3.py":32:35)
#loc23 = loc("/workspace/parameter-golf/.torchinductor_cache/ao/caotp3ljejrsfk67p7ppx23ok6tu5pbwiby7trxk24lqwjxe7bn3.py":32:30)
#loc24 = loc("/workspace/parameter-golf/.torchinductor_cache/ao/caotp3ljejrsfk67p7ppx23ok6tu5pbwiby7trxk24lqwjxe7bn3.py":32:46)
#loc25 = loc("/workspace/parameter-golf/.torchinductor_cache/ao/caotp3ljejrsfk67p7ppx23ok6tu5pbwiby7trxk24lqwjxe7bn3.py":32:56)
#loc26 = loc("/workspace/parameter-golf/.torchinductor_cache/ao/caotp3ljejrsfk67p7ppx23ok6tu5pbwiby7trxk24lqwjxe7bn3.py":33:25)
#loc27 = loc("/workspace/parameter-golf/.torchinductor_cache/ao/caotp3ljejrsfk67p7ppx23ok6tu5pbwiby7trxk24lqwjxe7bn3.py":33:36)
#loc28 = loc("/workspace/parameter-golf/.torchinductor_cache/ao/caotp3ljejrsfk67p7ppx23ok6tu5pbwiby7trxk24lqwjxe7bn3.py":33:4)
#loc33 = loc("xnumel"(#loc1))
#loc34 = loc("xoffset"(#loc2))
#loc35 = loc("xoffset"(#loc3))
#loc36 = loc("xindex"(#loc4))
#loc37 = loc("xindex"(#loc5))
#loc38 = loc("xmask"(#loc6))
#loc39 = loc("x1"(#loc7))
#loc40 = loc("x0"(#loc8))
#loc41 = loc("tmp0"(#loc9))
#loc42 = loc("tmp0"(#loc10))
#loc43 = loc("tmp1"(#loc11))
#loc44 = loc("tmp2"(#loc12))
#loc45 = loc("tmp3"(#loc13))
#loc46 = loc("tmp4"(#loc14))
#loc47 = loc("tmp6"(#loc21))
#loc48 = loc("tmp6"(#loc22))
#loc49 = loc("tmp6"(#loc23))
#loc50 = loc("tmp6"(#loc24))
#loc51 = loc("tmp6"(#loc25))
